UTILS/preprocess/tests/data/seq2seq_model.pth (torch, 143823 bytes, 11 tensors)

encoder.lstm.weight_ih_l0 f4 [200, 4]
00000000: ebbb 51bd a779 253d 1b78 5ebd 056a 07be
00000010: 97b9 eabd 71d9 f1bd 4413 f1bc a20b 833d
00000020: 960d 7dbc 0883 5cbd 71c3 e2bd eed2 cebd
00000030: b175 ccbd 988b 113e ceb3 8ebd e91a 923d
00000040: 8e81 bb3d 931e df3d 5680 0c3e bd25 e43d
00000050: 0020 6dbd ec1d bdbc 9095 ca3d 8c3a 86bb
00000060: 080d c7bd 7bd4 7f3c 334f b1bc 9d1d 89bd
00000070: f044 f93d a973 a93d 786c 1bbd d466 f3bd
00000080: 2911 d0bd eb24 c3bd a0ce 983d 5518 493d
00000090: f305 dcbd 37ab 063e 0637 933d d8be 563d
000000a0: b31a fc3d 388b ccbd 9ebf 23bd c23e 843d
000000b0: de02 64bd 57e4 133d 05dc 1c3d 3cf8 10be
000000c0: e13a 57bc e5a3 b9bd f833 d0bd 149c 893c
000000d0: 05ad 10be bb4d dcbd fdee 0cbe 6c89 913d
000000e0: ae1e 513d 9c8c 65bd 030e 29bd 40f9 583d
000000f0: 1b9e c8bd baf4 05be c3c7 dc3d 7460 de3d
00000100: f17e afbd 9695 97bd 1ce7 65bd 1c75 5d3d
00000110: 7410 8bbc 83b0 13bd 682b 8c3c 684c d93d
00000120: 1bd0 edbc c41e 0e3d e0fc b4bb 89ef acbd
00000130: 0540 07bd 0e6a 003e c90d 563d 6e87 cebd
00000140: 2d62 663d a8a1 1ebd 3634 eb3d f10b 4cbd
00000150: 29d1 e63d 117b 23bc f4cb 743c c5b0 a53d
00000160: 1989 6c3d 0b40 0f3e 0682 2abd 409d c93c
00000170: 5c7f 3d3b 8d21 fc3d ce9d 2f3d b366 4e3d
00000180: cb16 fdbd 4b96 b4bd d92f 353d f1fc 903b
00000190: 0ed8 543c 2e64 493d e638 093e 4785 cc3d
000001a0: 26f3 fabd a34d d43d c8d0 8a3d 40b6 a73d
000001b0: 3608 0fbe b6b9 31bd 8a53 6cbb 0b29 3b3c
000001c0: f14e aabc 256f 07be b6cb 013e c0bb b8bd
000001d0: 911b 79bd 12a4 31bb 8b41 b6bd ecd9 ad3b
000001e0: 43c2 713d 6098 4f3d d8a6 c8b8 07c1 413d
000001f0: db22 263c a8d7 473d 9dfe 42bd d022 19bd
00000200: 9e13 0bbe b534 f1bc 22c9 8f3d 81cc bcbd
00000210: faa2 dcbd 4b9e 7bbc 4ba9 f2bd e502 b3bd
00000220: eef7 743d 1f54 4e3d 5a37 0fbe e1ee b8bd
00000230: b0d9 0b3e 9796 e6bd 8dc0 c5bc 844c 2e3d
00000240: 1e01 0ebe ced4 393d ba6a fcbd 9bee 1bbd
00000250: c007 f33d 7174 f4bb badd 853c e0b1 b93d
00000260: 20da 8bbd dcbd 95bd 5d2a 8fbd 3232 9dbd
00000270: 6be3 333d f41b 273c b35f 493d 4189 363d
00000280: 0ba7 9bbc f684 113d dfa3 89bd bbed 073e
00000290: 1ada f4bd ef49 083d 8f5d 2b3d 2abd 1cbc
000002a0: c44c 6a3d df2d e5bd 0725 36bd 8707 dbbd
000002b0: efe1 85bd c7b8 d03d aa2d 0dbe 01f9 10bc
000002c0: 51d6 49bd 79cf 64bd c50e f1bd 14ab 0a3e
000002d0: 07ff 073e 9d24 033e 85a0 9cba 43f9 f03d
000002e0: 9ff2 083e 6b7d 693b 05fa bd3d c841 5bbd
000002f0: 299b 083e f448 47bd a53e 87bd b3b5 cdbd
00000300: 04dc d83d 2616 c93d f9ed fabd dfa2 113d
00000310: 3f76 93ba 42a2 9b3d 9c4f 6cbc c161 923d
00000320: f1cc 97bd c6c2 8e3d 5671 323c 9b7f 80bd
00000330: 9378 4abd 435c ba3c 0e6f 933d 30d8 bd3c
00000340: 7569 cf3c 875d 11bd 81b3 d0bd f5ed 6c3d
00000350: 8760 0c3e 6174 f13d bbb9 023e 9902 063e
00000360: 56a6 253d 1949 963d fe0c ba3d 558d 1f3d
00000370: b4aa d0bc b7ae fcbd 981e fd3d 9025 073e
00000380: 2f14 073e 4727 ccbc a2e0 bf3c 4f14 7dbc
00000390: 81a8 c8bd d324 d8bc 1abc 543c d43f 533d
000003a0: c603 08be a4f0 c5bd 1b14 04be 8bb6 423d
000003b0: 06ea b0bd ab67 68bd 1c04 e3bd b009 a43d
000003c0: aa31 043e 64f1 c23a 34bd e63d c576 c9bd
000003d0: 7aed d2bd 2032 fbbd c8c1 0f3e 308a e93d
000003e0: a255 893d f621 67bd 20af 30bd 8bf5 57bb
000003f0: 57a1 41bd b724 10be ea5f c43d 78db b3bd
-0.051204603 0.04039922 -0.05431376 -0.13224037 -0.1146118 -0.11809052 -0.029428132 0.06398703
-0.015445134 -0.0538359 -0.11072434 -0.100988254 -0.09983385 0.14213407 -0.06967889 0.07134039
0.0915557 0.108945034 0.13720831 0.111400105 -0.057891846 -0.023085557 0.09891808 -0.004096335
-0.097192824 0.015614624 -0.02164421 -0.066951014 0.12171352 0.082740135 -0.03794524 -0.11884847
-0.10159523 -0.09528526 0.074612856 0.04909547 -0.10743322 0.13151251 0.07188229 0.052428097
0.1230978 -0.09987491 -0.039977662 0.064572826 -0.055666797 0.036106434 0.038295764 -0.14157194
-0.013136596 -0.090644635 -0.10166162 0.016798057 -0.14128502 -0.107570134 -0.13763042 0.07106289
0.05105465 -0.0560423 -0.04127313 0.05297208 -0.09795781 -0.13081637 0.10780289 0.10858241
-0.08569134 -0.07401578 -0.056128606 0.054066762 -0.016975619 -0.036057007 0.017110541 0.106102765
-0.029029896 0.03469731 -0.005523309 -0.08444125 -0.03302004 0.12540457 0.05225924 -0.10084425
0.05624597 -0.038728386 0.11484568 -0.049816076 0.11270363 -0.009978072 0.014941204 0.08090357
0.057747934 0.13989274 -0.041627906 0.024611115 0.0028915023 0.12311087 0.042875104 0.05039091
-0.12357863 -0.088177286 0.044235084 0.004424684 0.012990965 0.049167804 0.13400611 0.09986358
-0.12253408 0.103663705 0.06778103 0.08189058 -0.13967976 -0.04339 -0.0036060535 0.01142336
-0.020789595 -0.13225992 0.12675366 -0.090201855 -0.060817305 -0.002710585 -0.0889922 0.0053055193
0.059023153 0.050682425 -9.56782e-05 0.047303226 0.010140146 0.04878965 -0.0476061 -0.037386715
-0.13581702 -0.029444078 0.07020785 -0.092186935 -0.10773273 -0.015357564 -0.11848696 -0.087407865
0.059806757 0.050373193 -0.13985959 -0.090299375 0.1365726 -0.112591915 -0.024139667 0.04255344
-0.13867614 0.045368962 -0.12325044 -0.03806935 0.118667126 -0.00746017 0.016341079 0.0906713
-0.068287134 -0.073116034 -0.06990502 -0.076755896 0.043918055 0.010199536 0.04916353 0.04456449
-0.01900055 0.035527192 -0.06720709 0.1327428 -0.11955662 0.033273634 0.04183727 -0.009566585
0.057202116 -0.1119039 -0.044468906 -0.10694795 -0.06537234 0.101914935 -0.1378695 -0.00884843
-0.049276654 -0.055861924 -0.11770395 0.13541824 0.13280879 0.12806936 -0.0011949694 0.11766293
0.13373803 0.0035627733 0.09276203 -0.05352953 0.13340439 -0.048653558 -0.06603745 -0.10044422
0.1058884 0.098186776 -0.12252421 0.035555717 -0.001125045 0.075993076 -0.014423277 0.07147551
-0.07412136 0.06970744 0.010891279 -0.06274339 -0.049431395 0.022749072 0.071989164 0.023174375
0.02531884 -0.035489585 -0.10190488 0.05784412 0.13708697 0.11789776 0.12766163 0.13086928
0.040441833 0.07338161 0.09084509 0.038953144 -0.025472023 -0.12338012 0.12359351 0.13197923
0.13191293 -0.024921073 0.023422543 -0.0154467365 -0.097977646 -0.026384747 0.0129843 0.051574543
-0.1328269 -0.09665039 -0.12898295 0.047537368 -0.086383864 -0.05673949 -0.11084768 0.0800966
0.1290957 0.0014872965 0.112665564 -0.098371066 -0.10299201 -0.1226542 0.14038765 0.1140331
0.06705786 -0.056428872 -0.043135762 -0.0032952751 -0.047273006 -0.14076506 0.09588607 -0.08782095

encoder.lstm.weight_hh_l0 f4 [200, 50]
00000000: 6269 023e 6a8d b83d 6776 b53d 0c60 acbd
00000010: bea2 61bd dbf9 e73c 861c aebb 0c0e fbbd
00000020: 4dbd 91bd 90ad 523d 7550 8d3d 03b7 f7bd
00000030: 1aee dbbd 7422 43bd f782 7f3d 000c c43d
00000040: 105a ab3c 4635 a73d e5a9 a5bd 71cb 98bd
00000050: 74e7 7a3d 30c7 e23c 629b dcbd df91 06bd
00000060: ee56 24bd d38f b4bd e108 653d 958a 023e
00000070: aa71 053e 1ebf abbd 48f5 2d3d b7da 0bbe
00000080: f706 893c d58c 91bb eddf ff3d 2211 f6bd
00000090: b9f6 e63d bd24 313c 8c1a df3d 717a 61bc
000000a0: a6ce e03c 03ad 02be ca0c d7bd 7783 baba
000000b0: e57b 463b 0409 033b 6c69 00bd d6de dfbc
000000c0: eb90 e8bd 8408 133c 7be3 01be 6d97 f93d
000000d0: 9bc8 b73d bc2a 003e 090a babd a74f 74bd
000000e0: f896 0e3e 4b35 fa3d 0525 4a3d 5a20 ecbd
000000f0: c475 87bd ca83 babd 1b1e 8bbd a0e1 0abe
00000100: 3e9b a53d 62c5 283d bacb 83bc 9b76 a03d
00000110: a31b 013e 5ccf b43d c8b9 0c3e b7ef a13d
00000120: 8a21 4f3d 7251 10be 5f3b 1b3c 8ee2 ee3d
00000130: e282 e43d db0a 153d b6d6 dcbd bd8d 01bd
00000140: 1bef b1bd c79a b73c f59c 413d 43ef 643d
00000150: 9aab 97bd 04b1 91bc 1630 c63a 2833 16bd
00000160: 12b7 313d 221b d9bd 2a5d 9ebd ecae 05ba
00000170: dbda 3ebc 93c3 68bd 7ba9 713d b79e a6bd
00000180: fa19 cd3d 2c69 a83d bb68 cc3d 4846 a73c
00000190: b076 97bd 59a6 f6bd cd26 d73d 125f 673d
000001a0: cb1a 8ebd 490b a73d 651b 9a3d 7e88 c8bc
000001b0: e42f 51bd c9a8 04bd 4319 1fbd 97a5 0a3e
000001c0: c7c8 90bd dde8 e03d 8dfd a13c f488 d53c
000001d0: cb95 88bd 4f75 b73d b62b f5bc 1694 adbd
000001e0: f870 003e b156 093e 8426 c1bd 6015 0bbe
000001f0: 55b9 0d3e 02ad ea3d d3e4 8c3d b311 d43c
00000200: eb3a 94bd 92e3 d2bd 6ff7 3abd 377e 393d
00000210: f67c 04be 0c73 fabd 28c6 dfbd 615b ee3d
00000220: 6156 d9bd 396f dcbd 0917 eebd 4620 4d3d
00000230: 17f1 103e 507b 95bc 7da6 853d 5439 ed3a
00000240: cdc5 52bc 9dfb ed3d f69d ecbd 5eec 85bd
00000250: ec6b f03c 55f9 ebbd b428 e43c caa0 d4bd
00000260: 3b49 aebd adb2 c8bd 88ea 70bb f097 bcbc
00000270: c518 f43d 1b36 c0bd 1480 c23d 8c49 af3d
00000280: feaa ebbd 19d3 9abd c978 e33d 634b 443d
00000290: 2462 a83d ef6f 08be abf8 0dbe 0170 3dbd
000002a0: 9b33 5d3c 7ea3 353c fba2 fc3d 4f4c f23d
000002b0: a6ef 98bd fa18 a43d 909e f83c 8ba4 bfbc
000002c0: 539f 8f3d 0b3e f73d 170a 823d 549b 8a3d
000002d0: 0851 b43d 5da4 e53c df8e d5bd a5e0 2c3d
000002e0: df44 f8bc 296d 25bb fc3e cabd 643e 973d
000002f0: 8357 d93d b152 8c3d 70be be3d 6779 c23d
00000300: 1a5c 013e 4daf 1b3d 6196 03be 7a40 a83d
00000310: 770d 743d 911b b03d b0fa c8bd ac17 40bd
00000320: 8a52 053d 1ac0 57bc 7275 0ebe 3306 f1bc
00000330: d163 b1bd 86cd 18bd c290 d1bc af80 33bd
00000340: dac4 b0bd 0ebf d23d 45e8 2a3d 75c6 c2bd
00000350: b4d7 113e 191d 6cbc 66ac 413d 2230 93bb
00000360: 0db4 36bc 0078 a23c e61f a03d a2c5 09be
00000370: c2de 903d 80bf bcbc 7427 10be 34b1 b63d
00000380: 1b0d 03bd 5222 1f3d bf93 0c3a 8221 60bc
00000390: 6882 b93d 113e e6bd 1d7f e7bd c3b3 053e
000003a0: ce42 e9bd f529 efbd baf7 1a3d 16d5 ae3d
000003b0: 0bef 0cbe 6891 09be 4de3 093d 1106 263a
000003c0: 2751 c63d d8ea 643c 8e8b f6bd a2aa 38bd
000003d0: ff2b 2b3d d5b2 ab3d fef1 9b3d bf3e bd3d
000003e0: 33ca 84bd 8a9f 84bd d9e7 77bd c9eb 80bc
000003f0: e846 12ba 0353 bfbc 92d8 18bd 1b9b 89bd
0.12735513 0.090113476 0.08860474 -0.08416757 -0.055086844 0.028317383 -0.005313459 -0.122585386
-0.071161844 0.051435053 0.069001116 -0.120954536 -0.10738774 -0.04764028 0.062380757 0.09572601
0.020916969 0.08164458 -0.080890454 -0.07460678 0.061255887 0.02768287 -0.107718244 -0.032853957
-0.040121965 -0.08816495 0.05591667 0.12748177 0.1303164 -0.08386062 0.042470247 -0.13657652
0.016726954 -0.0044418373 0.12493882 -0.120149866 0.11277527 0.010811982 0.10893735 -0.013762102
0.027442288 -0.12761311 -0.10500486 -0.0014229853 0.003028625 0.0019994387 -0.031350538 -0.027327936
-0.11355766 0.008974198 -0.12684433 0.12187085 0.08973809 0.12516302 -0.09083945 -0.059646275
0.13924778 0.12217196 0.04935171 -0.11529608 -0.06614259 -0.09107168 -0.067928515 -0.13562632
0.08086251 0.041203864 -0.016088355 0.07835122 0.12608199 0.08828613 0.13742745 0.0790705
0.050569095 -0.14093569 0.009474604 0.116643056 0.111577764 0.036387306 -0.1078314 -0.031629313
-0.08688184 0.02241267 0.047268827 0.05589224 -0.07405777 -0.017784603 0.0015120532 -0.03666988
0.04338748 -0.10600878 -0.077326134 -0.0005099613 -0.011648859 -0.05682714 0.05899952 -0.08135741
0.1001472 0.08223185 0.09980913 0.020419255 -0.07395685 -0.12043447 0.105054475 0.05648715
-0.06938704 0.08156449 0.07524756 -0.024479147 -0.051071063 -0.03238753 -0.03884245 0.1353973
-0.07069545 0.10981915 0.019774223 0.02606628 -0.06669196 0.08957922 -0.02992807 -0.08475511
0.12543094 0.13411976 -0.094311744 -0.13582373 0.1384023 0.1145878 0.06879582 0.025887346
-0.072378 -0.10297312 -0.045646127 0.045286383 -0.12938294 -0.12228975 -0.10926467 0.11638523
-0.106121786 -0.107634015 -0.11625487 0.050079606 0.14154468 -0.018247277 0.06525896 0.001809875
-0.012864542 0.11620257 -0.11553566 -0.06539224 0.029348336 -0.11522166 0.02785144 -0.103822306
-0.08510061 -0.09799705 -0.0036760885 -0.023021668 0.11918787 -0.0938532 0.09497085 0.0855895
-0.115072235 -0.07559795 0.11107022 0.047923457 0.08221844 -0.1332395 -0.1386439 -0.046249393
0.013501073 0.011086343 0.123357736 0.11830961 -0.07467584 0.080125764 0.030349046 -0.02339389
0.070128106 0.12072381 0.06349581 0.06767908 0.08804518 0.028032476 -0.10427641 0.042206425
-0.030306278 -0.0025242066 -0.098752946 0.07384947 0.10612395 0.0685171 0.09313667 0.09495812
0.1263279 0.038008977 -0.12850334 0.08215423 0.059583154 0.08599008 -0.0981344 -0.046897575
0.03254942 -0.013168359 -0.1391199 -0.029421901 -0.086616166 -0.037305377 -0.025581721 -0.043823894
-0.086312965 0.10290347 0.041725416 -0.09510509 0.1424244 -0.014411234 0.047283553 -0.004491822
-0.011151326 0.019832611 0.07818584 -0.13454297 0.07073738 -0.023040533 -0.1407755 0.089205176
-0.03199492 0.03885109 0.0005362592 -0.013679864 0.09058076 -0.11242307 -0.11303542 0.13056855
-0.11389695 -0.116779245 0.037833907 0.08536737 -0.13763063 -0.13434374 0.033664037 0.00063333014
0.09683447 0.013972007 -0.12038337 -0.045084603 0.041790005 0.08383719 0.07614516 0.092404835
-0.06483879 -0.06475742 -0.06052384 -0.015737431 -0.0005580024 -0.023355013 -0.037315913 -0.06719037

encoder.lstm.bias_ih_l0 f4 [200]
00000000: 9308 bd3c 4b15 f83d a00a 08be ee94 06be
00000010: 22a2 cd3d 07ae b63d d473 07be f6ec a3bd
00000020: 2011 4f3d 732a fabd ff4e 5c3d af55 acbd
00000030: 9f01 d1bd 17e1 483d ba83 3dbd 9e18 113d
00000040: 5759 5f3d 6efa 1e3d 5556 123e be7a a5bd
00000050: ddeb 583a dae2 64bd 0b3d e7bd efc4 cfbd
00000060: e51c 923d dd63 35bd dacf 58bd b938 f03c
00000070: 2f69 d73d 6932 71bd 5e2b f5bd f39b 7d3d
00000080: ac67 d9bd ffcd 2a3d 8285 eabd 0656 7539
00000090: 3c8d 5fbd 3e73 cb3d f8b8 b43d cd28 d83c
000000a0: 7cf2 a5bd 3aa0 013e f4b0 eabd 651e cdbd
000000b0: bdd8 cabb cacd 8dbd 915a e73d 6e69 aebc
000000c0: 1cbf 0cbe 5d50 47bd a60e bd3d 7ba5 683d
000000d0: 25fb 25bb cdd8 00be 4256 003e 1c64 09be
000000e0: bfc9 d93d 1774 fa3d f6e9 64bd 7af6 083e
000000f0: ebd8 f2bc 0fba bfbd 5396 2fbc 063a cb3d
00000100: 9e55 b63d 89c4 b8bd 7d60 16bd f2cf 6ebd
00000110: 8c4b a23c d51b d7bc ff18 0bbd 498e 0b3d
00000120: 3310 b6bc 5afc 0e3e 1f61 f93d 8e9b bcbd
00000130: a68e 0b3d f612 95bc 92d2 2e3d 45c1 0ebe
00000140: b69a dbbd 6f12 103e 1c60 0b3d 9a17 0ebe
00000150: 2c20 92bd c22c 93bd cc56 1a3d 5cc1 513d
00000160: fb73 383c 3ea0 0cbd 8e6d da3d 34a5 a23d
00000170: 82d8 283d 75f7 80bd b712 3c3d df48 d53b
00000180: 2d72 a23c d3ec efbd b48f 6c3d af1f 02be
00000190: d754 943d ab57 aa3d ef57 b03d 90e8 44b9
000001a0: 4769 07be 055d ae3d 26f2 69bc 4242 f9bd
000001b0: 5c89 e2bc c6c6 f53d 62b0 8cbd e431 b83d
000001c0: a1f5 f5bd 5578 eabd afae febb 55d5 cebd
000001d0: 1427 04be 3276 773d dd72 f7bd 9789 48bd
000001e0: 88a8 ff3c b0af e1bd 4a87 3a3b 418c 9b3d
000001f0: 2845 f2bb 7af2 86bd 3669 483d fe4b 6abc
00000200: a73a 833d e17f d83d d14a fabd d749 e8bd
00000210: 3b23 ff3d 35fa 06be 6de9 92bd c650 413d
00000220: f583 57bd 9e2b c23d e75e 5f3d e418 933d
00000230: adef 05be 5bb5 4dbd 7717 a63d 4f89 14bd
00000240: c8b5 07be dc58 8dbd 9f98 f93d 1972 07be
00000250: 6f85 d73d 49e3 8abd 4ee6 febd 63f9 00be
00000260: beac 3dbd edb7 e43c 1a07 1abd 0b78 313d
00000270: fa3f e23d 9c6c f6bd e04d 4fbc d382 193d
00000280: 8907 cfbd 65a1 b1bd a1f6 77bd b502 0abe
00000290: 5e28 a23d 1088 6abd f3fe dd3d 67a9 e13d
000002a0: a0b4 01be bf33 083e aa96 82bd 330e d5bd
000002b0: 7e2d 023e 1c5d 00bd 41eb d8bd 4d78 0c3e
000002c0: 8766 053e 82ab 2c3d 2210 cf3d 35c3 b33d
000002d0: 7a42 1ebd fa43 093e e561 8c3d 7f22 003e
000002e0: 6934 0abc 9ec9 fe3d e867 813d 071c acbd
000002f0: 53c4 c5bd 0f2d e93d 39ec 04be e9da c1bd
00000300: 8c26 103e 6aaf 95bd fc41 983d a435 9b3d
00000310: 704e d13d 427e 023e d430 90bd cff8 cebd
0.023075378 0.12113436 -0.13285303 -0.1314275 0.1004069 0.08919912 -0.13227779 -0.08004181
0.05055344 -0.12215128 0.053786274 -0.0841478 -0.10205387 0.049042787 -0.046268202 0.035423867
0.05452856 0.038813047 0.14290746 -0.08080052 0.00082748925 -0.055880405 -0.1129094 -0.10144984
0.071344174 -0.04428469 -0.052932598 0.029323922 0.10518109 -0.058885965 -0.11971162 0.061916303
-0.10615477 0.04170036 -0.11451246 0.00023397067 -0.05457805 0.0993409 0.088243425 0.026386643
-0.08102891 0.12658778 -0.114595324 -0.10015563 -0.006190388 -0.06924017 0.11296571 -0.021290507
-0.13744777 -0.048660625 0.092313096 0.05679844 -0.0025326696 -0.12582703 0.12532905 -0.13417095
0.10634183 0.12229174 -0.055887185 0.13375273 -0.02964445 -0.0936166 -0.010716992 0.099231765
0.08903049 -0.09021861 -0.036713112 -0.05830378 0.019811414 -0.026258389 -0.033959385 0.03407124
-0.022224521 0.13963452 0.121767275 -0.09209357 0.034071587 -0.018197518 0.042681284 -0.13940914
-0.10722868 0.14069532 0.034027204 -0.13876191 -0.071350425 -0.07186271 0.037680432 0.051209792
0.011258121 -0.034332506 0.10665427 0.07941666 0.041222103 -0.06297199 0.045916285 0.006508931
0.019829834 -0.117150925 0.057754233 -0.12707399 0.072427444 0.083175026 0.08610522 -0.00018778653
-0.13223754 0.08513836 -0.014278924 -0.12170841 -0.027653389 0.12000804 -0.0686958 0.08993891
-0.120097406 -0.11448733 -0.0077722888 -0.100992836 -0.12905532 0.060415454 -0.12082455 -0.04895934
0.031208292 -0.11019838 0.0028461986 0.07595111 -0.007393498 -0.065892175 0.048928462 -0.0143003445
0.064076714 0.10571266 -0.12221301 -0.11342209 0.124578916 -0.13181384 -0.07173429 0.047196172
-0.05261608 0.094809756 0.054533865 0.07182482 -0.1307971 -0.050221782 0.08109944 -0.03626376
-0.13252938 -0.06901714 0.12187313 -0.13227119 0.10523497 -0.067816325 -0.12446271 -0.12595133
-0.046307318 0.027919734 -0.03760443 0.043327373 0.11047359 -0.12032434 -0.012652844 0.03747828
-0.10108859 -0.08673362 -0.060537938 -0.13477595 0.07917856 -0.057258666 0.10839643 0.11018639
-0.12666559 0.1330099 -0.06376393 -0.10403099 0.12712666 -0.031338796 -0.10591746 0.13717766
0.13027392 0.04215575 0.10110499 0.08777467 -0.038637616 0.13404837 0.068546094 0.12513159
-0.008435347 0.12440799 0.06318647 -0.08403783 -0.096565865 0.11385547 -0.12980737 -0.09465582
0.14077204 -0.07308848 0.074344605 0.075785905 0.10220039 0.12743476 -0.07040563 -0.1010605

encoder.lstm.bias_hh_l0 f4 [200]
00000000: 4393 c8ba 2ab7 2e3b 3db1 d0bd d47e b8bd
00000010: e4ef d6bc 00e6 0bbe de5f bfbd 6108 c43d
00000020: f738 aa3d 7def 033e bb4b 713d 45f2 8cbb
00000030: ffb4 ad3d 6992 583b d0c1 04bd b31a 043c
00000040: e10b f3bd 9834 91bc 94bb b4bd 33de 49bd
00000050: 88c1 44bc b53e 0fbc 6e60 f43d 649e 8cbd
00000060: 5dff 08be a55c 773b b23f 03be c1d7 f83d
00000070: 1f2e ba3d 010f 073e 3a6e e2bc e7de edbc
00000080: 36e0 e1bc ef77 bdbd b0ec 28bb 528a 5c3d
00000090: 0de6 1f39 38e3 dc3d 0e97 c6bc b052 1e3d
000000a0: 8a0b 783d 4dca 1fbd c622 81bd bb73 053d
000000b0: df6f 1abc ab98 0bbe 6d6f 8d3c 2191 f53d
000000c0: 570e fd3c e810 053c 8b20 47bd 9dfd 06be
000000d0: b80b 7b3c f20a 253d 280b 5cbd f16a ec3d
000000e0: 379d 223d 87e0 cbbd 6700 d5bd 43f9 d1bd
000000f0: ed50 8f3c bda8 da3d 4dea 1b3c 9b18 31bd
00000100: b6bb 973d 1382 44bd 4024 103e 742d 2b3d
00000110: 5321 e5bd cf30 b13d dee9 8dbd 4d49 63bd
00000120: af95 ff3d b6ef 8bba e0b4 d6bd 397d d5bb
00000130: d943 983b b6b1 fc3c 8c47 f63d 53fe 37bd
00000140: 17c9 393d 62b9 993c 0303 973d 3706 bfbc
00000150: d9da 86bd f4a4 073e 7fd7 0bbe 2298 7d3d
00000160: faec 003e 3a00 e0bd cc4b 09be 3b4a 99bd
00000170: bf7d d23d d43d cabd 55d0 f9bc 55e0 093e
00000180: 0d6f ca3d 014c 0bbe bd7e 343c dbd5 acbd
00000190: 9603 3a3d ef3b 0fbd f1b4 f5bd 8bf1 85bd
000001a0: 5ea1 4e3d 97c3 493d a12b 11be 2741 8a3c
000001b0: f4e4 5e3d 53eb f1bd da52 0cbe e085 6b3d
000001c0: 9448 f1bc 4838 06be 9495 d0bc dcfe 9c3c
000001d0: 4464 073e bf35 0e3e f0d8 c63d bd76 02be
000001e0: 29a3 973d 7fe5 033d d86e 533d 27db 9f3d
000001f0: bb5d db3b 101e 40b8 f1d0 a4bd 7752 87bd
00000200: 6233 afbb 3f69 cbbd 55d3 a1bb f2fc 46bd
00000210: 5f65 d1bb bb30 5abd 330e 613c 3208 df3d
00000220: a6f3 2cbc 6854 743d 8ef5 9c3d 4622 cdbd
00000230: 2cf0 c6bd 610c 10bd 4569 5a3d 6b95 b0bd
00000240: be81 8f3d c98d 6f3d 76af 15bd 33c2 7cbd
00000250: 90b1 353d aec7 8cbd eb46 86bd 8e89 83bd
00000260: c847 e13d 871c 6cbd 6cd0 dbba 5260 11be
00000270: 58ee 4b3d 3439 a03d dff4 dcbd 2b7e 4f3d
00000280: f9fa 05be bc0c e9bc 00b9 3dbd fe85 43bd
00000290: 086d 3fbd 6371 8e3c 60bd 07be 0fed 6c3c
000002a0: 3856 debd d6bf 2bbd 0081 e83d 4b44 a9bd
000002b0: a912 1fbd 6b17 03be 679c c33d aca3 09be
000002c0: 4ad9 b2bd 1c12 29bd 0e78 0a3e 77c0 003e
000002d0: feb9 323d 019a ed3d 6152 d83c 7c81 8fbc
000002e0: 8b54 253d e352 a2bd c07f 04bd e3ab dd3b
000002f0: 005d ca3c f043 22bd f6d8 d63d 2fa4 02bd
00000300: 14e9 dd3d 8ec8 c43d 6f54 f03c 9c0b 70bd
00000310: 28a5 513d 294e 9a3b 7551 f73d 8518 09bd
-0.0015302676 0.0026659467 -0.101900555 -0.090085655 -0.026237436 -0.13661957 -0.09344457 0.09571911
0.083116464 0.12884326 0.058910113 -0.0043013417 0.08481788 0.0033046252 -0.032411397 0.008063006
-0.118675 -0.017725274 -0.0882484 -0.04928417 -0.012009032 -0.008742978 0.11932455 -0.06866148
-0.13378663 0.003774443 -0.12817267 0.12150527 0.09090828 0.13189317 -0.02764045 -0.029036952
-0.027572732 -0.09251391 -0.0025775842 0.05384285 0.00015249122 0.10785526 -0.02424195 0.038653076
0.06055788 -0.03901129 -0.06305461 0.032581072 -0.009426086 -0.13632457 0.017265046 0.11990572
0.030890627 0.008121707 -0.04861502 -0.13182683 0.015322618 0.04029364 -0.053721577 0.11543835
0.039700713 -0.099549346 -0.10400467 -0.10252621 0.017494643 0.106767155 0.009516311 -0.043236356
0.0740885 -0.04797561 0.14076328 0.041791394 -0.11187997 0.086518876 -0.06929372 -0.055489827
0.12479722 -0.0010676298 -0.10483718 -0.006515172 0.00464676 0.030846458 0.12025365 -0.044920277
0.04535779 0.018765155 0.07373621 -0.023318393 -0.06584711 0.13246518 -0.13656424 0.061912663
0.125904 -0.10937543 -0.1340782 -0.074848615 0.102778904 -0.09875074 -0.030494848 0.13464482
0.098844625 -0.13603212 0.011016545 -0.08439227 0.045413576 -0.034969267 -0.119974025 -0.06540211
0.05044686 0.049258795 -0.141768 0.01687677 0.054417565 -0.11812463 -0.1370348 0.05750072
-0.029453553 -0.13107407 -0.02546195 0.019164495 0.13221842 0.1388769 0.09709346 -0.12740608
0.07404167 0.032201286 0.05161938 0.07805472 0.006694523 -4.5804365e-05 -0.08047665 -0.06607526
-0.0053467015 -0.099321835 -0.004938523 -0.04858107 -0.006390258 -0.05326913 0.0137362955 0.10890235
-0.010556137 0.05965081 0.07664023 -0.10016303 -0.09713778 -0.035168055 0.05332305 -0.08622249
0.07007168 0.058484826 -0.036544286 -0.06170864 0.04435879 -0.068740234 -0.06556495 -0.06422721
0.11000019 -0.057644393 -0.0016770489 -0.141969 0.04978785 0.07823411 -0.10788893 0.050657433
-0.1308402 -0.028448455 -0.046319008 -0.047735207 -0.04673484 0.017388051 -0.13255835 0.014460816
-0.10856289 -0.041930996 0.1135273 -0.08264979 -0.038836155 -0.12801902 0.09551316 -0.13441342
-0.08732851 -0.041277036 0.1352236 0.1257342 0.043634407 0.116016395 0.026406469 -0.017517798
0.04036383 -0.07925966 -0.032348394 0.0067648753 0.024702549 -0.03961557 0.10490601 -0.03189486
0.10835472 0.09608565 0.029337136 -0.05860482 0.051182896 0.0047090244 0.120760836 -0.03347065

decoder.embedding.weight f4 [33, 50]
00000000: e3e3 393f d6b6 02be 62e0 5cbd ea6d 84bd
00000010: 7410 b8bd dc7e a0bf 250d 003d 3c08 da3d
00000020: 904b 313a 75ac c8be 4a8e 443f ceb9 5440
00000030: 84bb 273f b43b 033f 029a f03f 80d6 053f
00000040: b2d4 f8bb ffed 83bc 873d f43f 951f 293f
00000050: cd45 813e 2ab2 81bf 5da6 f13e 36ec 3b3e
00000060: 5009 acbf 9cc9 7f3f 68a8 03bf b005 2fbf
00000070: 4c44 d53f 8470 f2bf 7a0a 1fbf fd07 e1be
00000080: 133d 2cbe 7bee 3d3f c472 80bf a08e 0f3f
00000090: 1ad6 b7bf acc3 ebbf 274f 09bf d551 0fbf
000000a0: 6e03 b7bf 8515 db3f 44f5 48bf 9138 f13f
000000b0: 9526 193d 4a1a b13d b483 bfbf 5d7a 8e3e
000000c0: 17a4 90bf 2dc1 9a3e 4a69 273f cea9 243e
000000d0: de7e 803f 2c04 4d3f 7eae 133f a840 dd3e
000000e0: e20f 913d c1e6 193e 79e3 e9be ed05 e43e
000000f0: 7804 3f40 ef21 ac3f 0408 8ebf f495 ac3e
00000100: e61c 98bf 56ee ed3e bd17 5abf 7035 eb3d
00000110: 6bfd b33f 1ece a4be 6a11 ba3f f429 033f
00000120: 431f 6b3f fda4 0d3f 4ac6 3c3f 038d 333f
00000130: 65dd 86bf 3548 e73f 6887 1b3f 12af c4bf
00000140: b63d ac3e ff35 0ebf a2d6 1bbf dfa6 cdbf
00000150: 555a a3bd b669 95bf f02a 1fbf 019b 04bf
00000160: 187a 833f 14eb e4be bbb7 073f 8bff a93f
00000170: a68b 403f de8a 873f 2163 26bf fd86 173e
00000180: 2006 b43f c8f1 ff3e 11e7 053f 7dfa d8be
00000190: 8c46 083f 284b 953f 8d90 6cbf 87f9 463f
000001a0: 1752 eebf 5441 023f bbc7 053f d7bd 14bf
000001b0: f1f6 b63f a9fc 76bf 66d3 613d 3886 b73f
000001c0: 765b 8cbf 637c 533f b8f9 d6be df5a 293f
000001d0: 352e eabe ea0b ca3e 8290 5f3e 13f5 173f
000001e0: 6272 733f 7fb1 b9bd 1ec3 e5bd f906 913e
000001f0: 003c e0be b8f6 70be 7d95 8e3e 1c04 72bf
00000200: 9368 523e ee29 1dbf 192f 903f efe1 e2be
00000210: db3a ca3e 72ad 08bf 0c89 de3e fe8b acbe
00000220: 3a32 cfbf 4d0f 8abf bb73 883e 394c 3fbe
00000230: 34d5 6c3d dc88 1640 9462 e53b 794c 2dbe
00000240: ecd3 3b3c 95ae 85bf 3e96 1740 9bee c1bd
00000250: 3f42 14bf ba3b 843f 3635 0340 0d86 3b3f
00000260: 4e87 673f 73ff 0a3e 328b a1bf a94c 05bf
00000270: 5e9b 64bf 5416 9c3e 67f5 a7bd ecc1 3b3f
00000280: 8777 7d3e 8f54 16bf 20da fe3e 6daf 91bf
00000290: 14b0 c43f c4c2 71bf 9eed 2bbf 9d5e 8c3f
000002a0: 9120 743f 4308 8bbf 14ce 3ac0 2e56 1abf
000002b0: e5d0 64bf 31d6 6bbe 3029 bb3e e618 f13e
000002c0: 3293 a9bf 3aaf e1be c5b4 c43f bcf9 9dbf
000002d0: 1c8e 26bf bb97 a93e d1af 5dbf 2f03 5a3f
000002e0: 4c62 ce3e 2ed2 133e cef1 efbf 7599 2dbe
000002f0: ba72 4b3d dfc5 a03f 421f 8e3f aef2 083f
00000300: 9d92 803f bb56 a93f 6db1 e03e c50c 9cbf
00000310: 585c 433e b188 e73f 6ef7 0fbf b0c8 e23e
00000320: 6d4a ddbe 88ad 173f 6122 b7be 29c4 af3c
00000330: 2954 00c0 a984 42bf 3e1b e2bf f29f 2a3f
00000340: 2109 483f c8f3 e33f 7375 9e3f 4a9e acbe
00000350: e340 593e ac53 b9be af31 2dbf d812 793e
00000360: eed1 b6bf f818 95bf fe54 51bf a0b4 19bf
00000370: d08e 683f b8d6 413f 0aa7 cd3f 89aa 2c3f
00000380: addd 623f 68bc 31be 5cc7 a23e 9a19 923f
00000390: ddd5 25bf 3aca f1be b69d 6fbf 2651 d03d
000003a0: 2938 61be 7edd 503f 43fe ae3f 9c4b 1fc0
000003b0: a5a2 523e c314 a6bf 3c5b dcbf 4bed b2be
000003c0: bc35 d5be 05a8 b5bf df8c ff3e 4f4c 7b3f
000003d0: 7ad9 793f 1d8b 023f 5a11 bcbc 7b7d 78be
000003e0: db74 0b3f b870 db3f e0d4 db3c 548b 1b3e
000003f0: 570e d3bf ad58 a33f bfd8 603f 6702 0240
0.7261335 -0.12765059 -0.053924926 -0.06466277 -0.08987513 -1.2538714 0.031262536 0.10646102
0.0006763274 -0.39194074 0.76779616 3.3238406 0.655205 0.51262975 1.8797 0.52280426
-0.0075937146 -0.016104696 1.9081277 0.66063815 0.25248566 -1.0132496 0.47197238 0.18351826
-1.3440342 0.99917006 -0.5142884 -0.68368053 1.6661468 -1.8940587 -0.6212536 -0.43951407
-0.16820173 0.7419202 -1.0035024 0.56077003 -1.4362214 -1.8419089 -0.536364 -0.5598424
-1.4297922 1.7115942 -0.78499246 1.8845388 0.03739031 0.08647592 -1.4962068 0.2782773
-1.1300076 0.30225506 0.65395033 0.160804 1.0038717 0.8008449 0.5768813 0.4321339
0.070831075 0.15029432 -0.4568136 0.4453577 2.9846478 1.3447856 -1.1096196 0.33708155
-1.1883819 0.46470898 -0.8519247 0.11484802 1.4061712 -0.32188505 1.4536564 0.5123589
0.91844577 0.5532988 0.73740065 0.7013704 -1.0536314 1.8068911 0.6075349 -1.5365927
0.33640832 -0.5555114 -0.6087438 -1.606655 -0.07976214 -1.1672885 -0.6217489 -0.5179902
1.0271635 -0.447106 0.53014725 1.328111 0.75213087 1.0589254 -0.6499501 0.14797588
1.4064369 0.49989152 0.52305704 -0.42378607 0.53232646 1.1663561 -0.92408067 0.777245
-1.8618802 0.5088093 0.5225789 -0.5810217 1.429411 -0.9647928 0.055133246 1.4337835
-1.0965412 0.82611674 -0.41987395 0.66154283 -0.45738378 0.39462215 0.21832469 0.5935833
0.9509641 -0.09067058 -0.11218856 0.28325632 -0.43795776 -0.23531616 0.27848426 -0.9453752
0.20547704 -0.61392105 1.1264373 -0.44313 0.39498028 -0.53389657 0.43463933 -0.33700556
-1.6187203 -1.078592 0.26650795 -0.1868142 0.057820514 2.3521032 0.007000277 -0.16923703
0.0114641 -1.0443903 2.368545 -0.094693385 -0.57913584 1.0330727 2.0501227 0.7325142
0.90440834 0.13574009 -1.2620604 -0.520701 -0.8929957 0.30485785 -0.08201104 0.73342776
0.24752627 -0.58722776 0.4977579 -1.1381661 1.5366235 -0.94437814 -0.6715945 1.0966374
0.9536219 -1.0861896 -2.918828 -0.6028775 -0.8938125 -0.23030926 0.3655486 0.47089309
-1.3248045 -0.44079 1.5367666 -1.2341838 -0.6506059 0.33123574 -0.865964 0.8516111
0.4030937 0.14435646 -1.8745668 -0.1695307 0.04966996 1.2560385 1.1103289 0.534953
1.0044743 1.3229593 0.43885365 -1.2191397 0.19078195 1.808859 -0.5623692 0.44293737
-0.43220845 0.5924916 -0.35768417 0.021455841 -2.0051367 -0.75983673 -1.7664564 0.6665031
0.7813893 1.7808771 1.2379593 -0.33714515 0.21216159 -0.3619665 -0.67653936 0.24323595
-1.4282815 -1.1648245 -0.8177031 -0.60041237 0.90842915 0.7571826 1.6066601 0.67447716
0.886195 -0.17357028 0.31792724 1.1414063 -0.64779454 -0.472246 -0.9360002 0.10171728
-0.2199408 0.8158797 1.3671345 -2.4889898 0.20569856 -1.2975086 -1.7215343 -0.34946665
-0.4164256 -1.41919 0.49912164 0.9816331 0.9759747 0.5099352 -0.022957493 -0.24266617
0.5447518 1.7143774 0.026834905 0.15189868 -1.6488751 1.2761437 0.8783073 2.0313966

decoder.lstm.weight_ih_l0 f4 [200, 50]
00000000: 024a 87bd cb3d 11bc c211 5d3d a467 3d3b
00000010: e39c 77bd ca63 e8bd cd41 763d 5e2d 43bd
00000020: 5da7 313d 041e b53d 790d d3bd 71ef e6bd
00000030: 1f80 e03c 1042 91bd 54e1 58bd 94dc df3a
00000040: 1be9 d23c 0df4 deba e928 fabd 0ff3 2ebd
00000050: bc9e 0bbe 7d75 013e 7add a9bc 9211 28bd
00000060: f808 abba 0b1b ce3c cc7e 02be 16ef 3fbc
00000070: 40af 943c ae81 94ba 98c2 973d f41c 0fbe
00000080: 7b37 c4bd bf7f 2c3c 0601 ff3d 5c80 39bd
00000090: bb7a 82bd 3981 f0bd 86d4 03bc 1033 433d
000000a0: ce31 b83d dc2e 0a3c de69 e1bd 1b4e 12bd
000000b0: 48c9 25bd d384 70bd 6eed be3c e479 9f3d
000000c0: c8ff d73d 7a72 b03d f2d6 0b3e b0c4 afbd
000000d0: afb1 0f3d 735b 163b 264c 52bd 591e b5bc
000000e0: e5a9 433d a4d8 9c3d e1cd 08be 9658 733c
000000f0: cfde bfbc 5a12 9f3d 2264 c13d 0fa6 303c
00000100: 5a1f 153d 4f72 bb3d fa75 8fbd cb5f f33a
00000110: 484d 0b3e 3e3c 943d 9504 41bd c47e 48bd
00000120: c42b e6bd 689f e63d 29ec 3dbd 11e8 93bd
00000130: 1b17 d4bd bd0a ed3d 3d22 d43d 0432 03be
00000140: 0d2d 76bc bb5d ef3d 6998 ad3d 987f 15bd
00000150: 0e57 a23c 1a8a 84bd c3f0 e33b 7f26 2b3d
00000160: af86 c0bd 3a09 c5bd 85eb d33d 6b11 9ebd
00000170: 9999 cc3d 4126 71bd 8f8d fc3c 5ce7 19bd
00000180: 0d72 d63d f38c 543c 185a 2d3d 120c dcb8
00000190: 9918 953d 19b0 2c3d 8a68 3fb8 bb5a 8c3d
000001a0: 7e78 8a3d 5bb9 d83d 8b67 ee3d 764d 2fbd
000001b0: af9c 80bc 0bf5 84bd 424c 74bd ace0 fd3d
000001c0: 7cf2 043e 9066 b13d f262 d9bc af96 633d
000001d0: 4654 813c c92b 03bd 4a9c 97bc a1ba 85bd
000001e0: 6b41 893d 63d7 60bd e37a 8ebd 125a 113e
000001f0: ff48 063e ba37 73bd af78 0fbe 2bb4 8abd
00000200: c969 a5bd db43 42bd 9c5b 8d3d 9f5e 353d
00000210: 25ba f33d ba5c b73d c519 ff3d d565 df3d
00000220: 9b20 d13c 540b 93bc 77d4 293d eb7f 34bd
00000230: 3977 d13d 2f14 f9bd 2be5 aabc 526e e0bd
00000240: 243e fdbd 4ad8 653d 2a0e 9d3b 84a5 59bd
00000250: c6a9 a53a 4873 0ebc 2f8c d6bd f3a3 eebd
00000260: 3007 a4bd 8f7c e23d 71c9 a7bd 07c1 913b
00000270: d50b 093e 6607 57bd 18d3 95bb dbb1 dcbd
00000280: f897 c5bd 48c2 4c3c b7d8 c4bd 3cb2 6abd
00000290: c4df 113e 73c3 c1bb fa98 a73d 1c79 7f3d
000002a0: ca53 4e3d 452e 8ebd 7dba 03be 0f39 9a3c
000002b0: 42de 013e bcb5 f0bd f636 a8bd a9a1 b23d
000002c0: 932a fbbd d6b4 003e 7307 023e be2a 75bd
000002d0: 28b2 643d 3b6e 043e dba7 3e3d 89fa 82bd
000002e0: 3b11 0c3d 1178 aabc ad31 11be c0d8 0abd
000002f0: f49f e8bd 4b1b 953d b06d f5bd eb9d 103e
00000300: f315 483d 6d0b 77bd e4d2 b6bd ffa3 31bd
00000310: 49f3 e53d 5591 ad3d 3f39 b7bd b508 d7bd
00000320: 0eb7 343d a2af be3c ef29 04be d14c 673d
00000330: 8e22 05bd a63f 7c3d d3e8 08be 8978 debd
00000340: a282 883d ae08 a5bb 5ec0 5dbd c4bc 6dbd
00000350: a3cd 8b3d 3fd3 26bd 5cb1 82bd cf6c 2bbd
00000360: 26b6 8abd cc9f ffbd f043 ec3d 90d0 e73d
00000370: 7b1f b8bd 2b08 383c 7673 bdbd ff96 ff3d
00000380: ee25 c43d 15f9 913a da84 66bd 7236 bb3d
00000390: fc98 10bc e6b8 e13d 54d3 083e 3d2c d43d
000003a0: 33d8 21bd 3cf4 dc3c 2441 d8bd 8a3a 323d
000003b0: d4eb dabd 0fab b53d 3b29 d7bc abeb 093e
000003c0: c7b8 1cbd 1013 6e3d 122d bfbd 1da4 0a3e
000003d0: 56a7 a33c 1aee fa3c a153 e83d fd45 a3bd
000003e0: a0b3 b63c 0427 b63d e6cf d03c 3c40 ca3d
000003f0: 613b ef3d 16f1 d43d dd8e febc f8d2 b4bd
-0.06605913 -0.00886483 0.053972013 0.0028900886 -0.060452353 -0.11347158 0.060121346 -0.047650687
0.0433725 0.08843616 -0.10305304 -0.112761386 0.027404843 -0.070926785 -0.052949265 0.0017079287
0.025745919 -0.0017009989 -0.12214834 -0.042712267 -0.13634771 0.12642474 -0.020735491 -0.04103238
-0.0013048938 0.02515938 -0.12743682 -0.011714717 0.018149972 -0.0011330151 0.07410163 -0.13975888
-0.095808946 0.010528504 0.12451367 -0.04528843 -0.06371065 -0.11743397 -0.008046275 0.04765612
0.089938745 0.008434024 -0.11006521 -0.03571902 -0.04047516 -0.05872042 0.023306575 0.07786921
0.10546833 0.08615585 0.13656214 -0.08582437 0.03508156 0.0022942692 -0.051342152 -0.022109197
0.047769446 0.076585084 -0.13359787 0.0148526635 -0.023421673 0.07767172 0.09442927 0.010781779
0.036406852 0.09152662 -0.07004924 0.0018567977 0.13603699 0.07238053 -0.04712351 -0.048949018
-0.112388164 0.11260873 -0.046367798 -0.072219975 -0.103559695 0.11574314 0.10358093 -0.12812048
-0.015025389 0.116877995 0.084763356 -0.036498636 0.019816902 -0.06471653 0.0069561913 0.04178476
-0.09400689 -0.096209005 0.10347656 -0.07718166 0.09990234 -0.058874372 0.03082922 -0.037574157
0.10470972 0.012973058 0.04232225 -0.00010492666 0.07280082 0.042160127 -4.563531e-05 0.06853243
0.06761263 0.10582229 0.11640843 -0.042798482 -0.015699713 -0.06492051 -0.059643038 0.123963684
0.12983125 0.0866214 -0.026536439 0.055563625 0.015787255 -0.03202418 -0.018507142 -0.06529737
0.067019306 -0.05489291 -0.069570325 0.14194515 0.13113783 -0.059379317 -0.14010881 -0.067726456
-0.080768175 -0.047427993 0.06902239 0.04427969 0.119007386 0.08953233 0.12456087 0.10908095
0.025528243 -0.017949738 0.041462388 -0.044067305 0.10227818 -0.12162053 -0.020861229 -0.10958542
-0.12365368 0.056114472 0.0047929483 -0.053136364 0.0012639097 -0.008694477 -0.10475957 -0.116523646
-0.080091834 0.11058914 -0.08192719 0.0044480595 0.1338342 -0.05249729 -0.0045722835 -0.10776111
-0.09648126 0.012497492 -0.096116476 -0.057298884 0.14245516 -0.005913192 0.08183475 0.06237136
0.050372876 -0.06942419 -0.12864108 0.018826036 0.12682441 -0.11753413 -0.08213608 0.087222405
-0.1226398 0.12568983 0.12698154 -0.059855215 0.055833966 0.12932675 0.0465468 -0.06395442
0.03419612 -0.020809205 -0.14179106 -0.033898115 -0.11358634 0.07280596 -0.11983812 0.14122741
0.048849057 -0.06031363 -0.08926943 -0.04336929 0.112280436 0.084749855 -0.08946466 -0.104997076
0.044119887 0.023277108 -0.12906621 0.056469742 -0.032503657 0.061584137 -0.13370065 -0.10862834
0.06665541 -0.005036435 -0.054138534 -0.05804135 0.068263315 -0.040728804 -0.06381485 -0.041851815
-0.06773023 -0.12481651 0.115363955 0.11319077 -0.089903794 0.011232416 -0.09250538 0.12479972
0.09577547 0.0011136854 -0.05627904 0.09141244 -0.008825537 0.11021595 0.13361865 0.1036
-0.039512824 0.026971929 -0.105592996 0.04351286 -0.10689512 0.088705175 -0.026264777 0.13468806
-0.038262155 0.05812365 -0.09334768 0.13539167 0.019977253 0.030631114 0.11344076 -0.079723336
0.022302449 0.088941604 0.025489759 0.09875533 0.116812475 0.10397546 -0.031073982 -0.088293016

decoder.lstm.weight_hh_l0 f4 [200, 50]
00000000: 2bbe ed3d 6af1 81bd c639 183d 2c92 ffbd
00000010: f910 adbd 1cc1 0cbe 7c7f 0bbe 169e 733d
00000020: 962a 073e bf9a af3d 4fac 83bc 0704 203d
00000030: 79ea d8bd de9e 0d3e f3e7 043e de91 10be
00000040: fd1e bdbd 64ce 43bd 6ae9 bd3d 7088 043e
00000050: dfa6 edbd e0e7 9fbd db52 09be 2fbd d33d
00000060: 3ba7 e03d 7163 533c 2b67 523d 7859 f53d
00000070: e05d f1bc 75b7 083e 5bed df3c 456b 0e3d
00000080: 266c 48bd 57f4 d03d 0e18 fa3d d26a 4f3c
00000090: a38a 083e dbf1 8a3c 75c3 843d 5042 673d
000000a0: c530 963c 30f8 0fbe 15f4 ebbc 34ca 77bd
000000b0: 2c18 873d d123 193d 62cf 9fbd 12cb 1c3d
000000c0: 6689 b0bd 7ef7 f33d 34d2 10bd e3bd 06bc
000000d0: bed6 ac3d ea1f 92bd 2da9 bebd f7d8 9a3d
000000e0: c4bc 91bd 7953 96bd ff9e 553c 8b75 0a3e
000000f0: ce4f eabd 97e2 be3c 3e6f bd3c 9e15 2b3d
00000100: 39d3 953c a614 67bd 1f9d 10bb 14f3 77ba
00000110: a8bc 0b3e a401 063e 036b 3a3d d7aa 863d
00000120: f5e4 c5bd d137 5c3c 2fc5 09be cc45 c0bc
00000130: d48b cbbd 15f3 cabd fb65 cdbd faab 6bbd
00000140: a6aa 433b c868 e4bc fc18 013c 0add 70bd
00000150: fe16 d63d 3956 ebbd 542c 2cbd c72e 0c3e
00000160: fe63 a4bc fb72 c3bc 7af6 df3d f453 173d
00000170: 5cd5 7d3a 7c7c 8fbd b6fc 08be a3a9 3d3c
00000180: 1389 d83d f7f6 b1bd 5d0e afbd de52 8f3c
00000190: b618 84bd a163 753d 1370 d53c 610a edbd
000001a0: f7c8 a2bd e8a9 413d 2fdf 3ebd b4ac e9bc
000001b0: 4c22 aa3d b33e f0bc 84c2 66bd b1ab 0b3e
000001c0: 8759 96bd 701b e73d 6f38 0fbe 7a32 12be
000001d0: 5083 aa3d 9d99 cf3d f95b 48bd 7ec0 4abd
000001e0: b79e 9d3d ae95 4d3c d228 3fbd 22e9 243c
000001f0: a28b a1bd 311c c03c 4d13 f5ba 0100 a5bd
00000200: 967b a2bc 0c60 52bd 5947 96bd e3b1 883d
00000210: 139f c13c 3322 483c 3909 99bd a925 0a3e
00000220: cd18 b93c 0e44 bd3d 6d06 aa3d 1fca b83d
00000230: 94da 9abd 5792 abbd 625f cbbd 6995 fc3d
00000240: 188a a13d dded da3d ce9f 963d 91da 60bc
00000250: a920 dabd 33b4 cd3c 3c5a 27bd b88a 9a3d
00000260: 860a d83d b27e 9f3d 0d79 e23d 7ece 2cbd
00000270: 0d88 cb3c 165e 08bd 3e0b a73c c262 b73d
00000280: 2ea2 cbbd 447e d2bd ab71 1e3d 643f c23d
00000290: d378 0c3e 151f 283d 1752 c6bd 970c 093e
000002a0: c9fb b1bd 9123 3fbd de38 f2bd fc56 fabd
000002b0: c67c b5bc 3710 87bd 4be2 be3d 462b 03be
000002c0: 729f cc3d 6873 c7bd e206 103e b17b 06bb
000002d0: ccda f9bd 8b07 c23d a433 f63d a66e 973b
000002e0: bf98 ad3d b15b 873c 5250 0f3d d084 193d
000002f0: 6a39 70bd 5562 9dbd 2597 8d3d d643 a33d
00000300: 13dd 8cbd f40f 3ebd 41f5 e33d 4561 efbd
00000310: cd84 693d 8423 0c3c fcbd 9ebc 21e3 523d
00000320: eb76 0a3d 4152 6e3d 710c c83d 0337 bb3d
00000330: 9e82 d4bd 1efe e7bd 8628 6ebd 7341 cf3c
00000340: 41d3 a23d aca5 5c3d 8def 02be 525d ef3d
00000350: 4ec3 9fbc 8a81 293d fdff a9ba e56a bbbd
00000360: 9d24 0abe d675 d53d ea1a 693d c0fe fbbd
00000370: 12b8 153d cb51 70bd 1124 f9bd 53d9 8f3b
00000380: b112 04be b4c8 e63c a917 68bd 9f71 98bd
00000390: 0f3d 10be 133b 293d 8b56 b93d ebd5 f1bc
000003a0: 574a 9b3d db05 52bc 7db2 e2bd 357e d83c
000003b0: f205 933d 5ba3 08bd 917c 0d3e 812f 313d
000003c0: af6f 11bc 6fb6 ce3d c89a 82bd b7ab 1fbd
000003d0: ab5a 0abe 68f6 b73d bd85 9e3d d175 be3d
000003e0: e3e5 9f3d ebad 40bd 4f80 c93d 4cb4 e63d
000003f0: b090 b3bc 8cbe f43c 4d22 093e f04e cc3d
0.11608537 -0.06344874 0.037164472 -0.12479052 -0.08450503 -0.1374554 -0.1362285 0.059476934
0.13199839 0.08574437 -0.016073374 0.03906634 -0.10591597 0.13830134 0.12979107 -0.14118144
-0.09234426 -0.04780425 0.09273036 0.12942672 -0.11604094 -0.078078985 -0.13410513 0.10338818
0.10969397 0.012902127 0.05136792 0.119799554 -0.029463708 0.13351233 0.02733486 0.03477027
-0.048931263 0.10202854 0.12211619 0.012659745 0.13334136 0.016961029 0.06482593 0.056459725
0.018333802 -0.1405952 -0.02880291 -0.06049557 0.06596407 0.037387673 -0.07803227 0.0382796
-0.08619957 0.1191244 -0.035356715 -0.008223983 0.08439396 -0.071349934 -0.093096115 0.07560914
-0.07116082 -0.0734014 0.013038396 0.13521402 -0.11441003 0.023301406 0.023124333 0.041768663
0.018289195 -0.056416176 -0.0022066308 -0.0009458524 0.13646185 0.13086563 0.04551221 0.06575554
-0.09662811 0.013441042 -0.13454126 -0.023470782 -0.099387795 -0.099096455 -0.10029217 -0.057537057
0.0029856353 -0.027881995 0.007879492 -0.05880455 0.10453604 -0.11491055 -0.042034462 0.13689719
-0.020067211 -0.023858538 0.109356835 0.0369453 0.0009682977 -0.070061654 -0.13377652 0.011576089
0.1057302 -0.08689683 -0.085476615 0.017495569 -0.06450026 0.059909467 0.026054418 -0.11574245
-0.07948487 0.047281176 -0.046599563 -0.028524734 0.08307323 -0.029326772 -0.05633785 0.13639714
-0.07341295 0.1128453 -0.13986371 -0.14277068 0.08325827 0.10136721 -0.048915837 -0.04949998
0.07696288 0.012547893 -0.04666979 0.010065349 -0.07887961 0.023450943 -0.0018697769 -0.08056641
-0.019834321 -0.05136113 -0.07337827 0.06674554 0.023635423 0.012215185 -0.07472462 0.13490929
0.022594834 0.09241496 0.08302007 0.090229265 -0.07561222 -0.083775215 -0.09930302 0.12333185
0.078876674 0.106899 0.07354699 -0.013723985 -0.10650761 0.02511034 -0.04085754 0.0754599
0.10548882 0.07787837 0.11058245 -0.042189114 0.024845148 -0.033292852 0.020391103 0.089543834
-0.09943043 -0.102779895 0.03868262 0.09484747 0.13717966 0.041045267 -0.09683626 0.13383709
-0.08690602 -0.04666478 -0.11827253 -0.12223622 -0.022154223 -0.065948896 0.09320506 -0.12809476
0.09991349 -0.09738809 0.14065126 -0.0020520503 -0.12199935 0.09474095 0.120215684 0.0046213446
0.084764 0.016523214 0.03498871 0.037480175 -0.058648504 -0.07684771 0.06913594 0.07971923
-0.06878104 -0.046401933 0.11130763 -0.116884746 0.057011414 0.008553389 -0.019377701 0.05148614
0.033804815 0.058183912 0.09767998 0.09141352 -0.10376476 -0.11327766 -0.058144115 0.025299763
0.0795045 0.053868935 -0.12786694 0.11687721 -0.019502308 0.041383304 -0.0012969967 -0.09151248
-0.1349053 0.10422866 0.056910433 -0.12304449 0.036552496 -0.058671754 -0.12165082 0.0043899207
-0.12897755 0.028171875 -0.05666319 -0.074435465 -0.14085792 0.041316103 0.0904971 -0.02952095
0.075825386 -0.012818779 -0.110692 0.026427368 0.07178868 -0.033358913 0.1381705 0.043258194
-0.008876725 0.1009339 -0.063771784 -0.03898212 -0.1351115 0.08982545 0.07740352 0.092998154
0.07807519 -0.04704086 0.09838926 0.11264858 -0.021919578 0.029876016 0.13391991 0.09975994

decoder.lstm.bias_ih_l0 f4 [200]
00000000: bb96 9d3d d130 163c 903a 9c3d 2097 07be
00000010: 7be0 dc3a 2958 e33d 7f19 1e3d d2bf e63b
00000020: a8f0 8b3b 4ae8 e1bd ea9e c3ba 5074 a13b
00000030: 0ea1 113e 7eca c63d d1d9 ffbd 69c4 acbd
00000040: ff7b a13d 17db 593d 4059 88bc 10f7 053e
00000050: f4a4 9abd 5c19 a43d 3099 833c 78b2 bfbd
00000060: 1755 23bc a939 843d 2d80 5fbd 946e f73d
00000070: c66c dc3d 4d14 07bd c33a 8f3d 0422 b03d
00000080: 5b88 90bd 0d38 b73d 5a66 073e adc5 433d
00000090: 1643 e8bd ddaa 9f3d 5f30 96bd db54 bbbd
000000a0: d8c1 083e df2d 103b be58 ae3d a43c cabd
000000b0: ddcf df3d c037 3d3d 9ef1 d8bc f124 133d
000000c0: c598 abbd 5cb1 5ebd b7c7 ba3c 77f2 22bd
000000d0: 23f1 b8bb 2123 b13c 0453 8bbc ea13 08bc
000000e0: 52e1 6c3c 5ba7 eebc d3b4 7ebd fb9a 4a3d
000000f0: 293a a33c 48d4 a13d a844 433d 3802 88bd
00000100: e852 6a3d 8f6d 46bd 549a 20bd 68e2 dfbd
00000110: 3f9d 7cbd e0dd b13d 6d58 803d 65c7 9fbd
00000120: 1f47 ddbd a2e4 82bb 4041 f03d 7f8a 8bbd
00000130: 93e3 c0bd 151b 163d 89fe c4bd 9d0f a23d
00000140: 9e23 d13c 296c 1a3d 80b3 a8bd c90e a1bc
00000150: 6e7f 083e f54f 9ebd 1be3 5b3d 9a6f 03bc
00000160: 6f55 d43d 64d0 d53d 43c4 df3d 507d a2bd
00000170: 5868 05bc 8986 c2bd d847 e6bd fa8e 6d3d
00000180: 2b3e 7a3b 58dc 093e 982a 2d3d 3152 92bb
00000190: 1e10 d63c 2a67 823d 4e4d d33c e3fb 3cbd
000001a0: aada 8f3c c777 32bc 53c4 c1bd 9b55 20bc
000001b0: 1c31 d4bd 0467 85bc 08b1 1a3c 8af3 5fbd
000001c0: ee28 5bbb 9de5 dabc 1315 08be 9b65 ab3d
000001d0: 11e5 633d 96b5 fa3d 9f69 11be c1ee 9dbd
000001e0: cbf9 62bc 073c 0fbe 581b e53c c449 7d3d
000001f0: de77 b43d 975a abbd 03fc 86bd 1945 92bd
00000200: db4d 1dbd 87ee 9abc 5f6c 9c3d d9b7 e1bc
00000210: e252 5bbd e00a 4dbc b9fc 9f3d 19d2 58bd
00000220: b4f3 8f3d bce1 923c 0733 3cbd f48f 923d
00000230: ff24 9ebd 71aa 82bd 1401 113d 12f2 ae3d
00000240: 918b c43d 6c65 99bd 9c62 e83d d7bb 173d
00000250: 73e9 1a3d d6bb 04be 5595 a33d a675 843d
00000260: f26f b03d b63f 31bd da44 a13d 4493 a93d
00000270: 4e63 2b3d 5d96 e6bd f1b4 d7bd 4b10 cc3d
00000280: fd40 7fbd 0a10 803c 48f9 063d a4ba ae3d
00000290: ff43 0cbe ff91 673c 0ea1 023e 2428 90bd
000002a0: ec48 b83d f2fd 4abd cc49 a93d 2f5a 07be
000002b0: bc47 89bd d03d f3bd 3b87 2d3d 2de1 e93d
000002c0: 97ac b53d 4785 d0bd 91df 2b3d 0063 423d
000002d0: e90c 11be efdc f3bd f702 bc3c 8c48 c43d
000002e0: ef58 8a3d 00b6 023e 5743 b9bd f497 ffbd
000002f0: 1a5b ffbb ac23 df3d ea30 c13d 0cc2 e53d
00000300: 73d2 203d 6513 373d 5b08 04be c00a 133d
00000310: 7856 b83d cea0 ee3d 4c14 7d3c 3ca5 5e3d
0.07694765 0.009166912 0.076283574 -0.13241243 0.0016851568 0.111007996 0.038598534 0.0070419097
0.004270632 -0.11030634 -0.0014924679 0.0049271956 0.14221594 0.09706591 -0.12492717 -0.084359
0.078849785 0.053187456 -0.01664412 0.13082528 -0.075509936 0.080126494 0.016064256 -0.09360212
-0.0099690175 0.0645631 -0.054565597 0.12081638 0.107629344 -0.032978345 0.0699363 0.08600238
-0.07057258 0.08946238 0.13222638 0.04779594 -0.113409206 0.077962615 -0.07333445 -0.09147044
0.13355196 0.0021999998 0.0851302 -0.098748475 0.10928319 0.046195745 -0.0264824 0.035923902
-0.08378748 -0.05436836 0.02280031 -0.039782014 -0.00564398 0.021623196 -0.017007358 -0.008305529
0.014458017 -0.029132536 -0.062184166 0.049464207 0.019925194 0.079018176 0.047672898 -0.06641048
0.05720797 -0.048444327 -0.03920968 -0.109318554 -0.0616734 0.086848974 0.06266866 -0.07801703
-0.10804581 -0.0039945403 0.117311954 -0.068135254 -0.09418406 0.03664692 -0.09618861 0.07913134
0.025529679 0.037700806 -0.08237362 -0.01966037 0.1332986 -0.07730094 0.05368338 -0.008022213
0.10367858 0.10440138 0.10926106 -0.07934058 -0.008142553 -0.09498317 -0.11244172 0.05799768
0.0038184028 0.1346296 0.04227695 -0.0044653644 0.026130732 0.06367333 0.025793698 -0.046138655
0.017560322 -0.010892815 -0.09461274 -0.009786035 -0.10360929 -0.016284473 0.009441622 -0.054675616
-0.0033441144 -0.026720816 -0.13289289 0.08368989 0.055638377 0.12241666 -0.14200447 -0.07711554
-0.013853501 -0.13987742 0.02796714 0.061837927 0.08811925 -0.08366888 -0.06591036 -0.071420856
-0.038404327 -0.018912567 0.07637858 -0.027553486 -0.05354584 -0.0125148 0.07811875 -0.05293474
0.070289046 0.017929904 -0.0459471 0.07156363 -0.077219 -0.06380165 0.03540142 0.08542265
0.09596933 -0.07490048 0.11346933 0.037044372 0.03782029 -0.12962279 0.07987467 0.06467752
0.08615102 -0.04327365 0.078744605 0.08280042 0.04184275 -0.11259148 -0.10532559 0.09964045
-0.062317837 0.015632648 0.032952577 0.085316926 -0.13697813 0.014133929 0.1275675 -0.07038906
0.08998284 -0.049558587 0.08266029 -0.13217996 -0.06703135 -0.11877024 0.042365294 0.11419902
0.088708095 -0.10181671 0.041961256 0.047457695 -0.14165081 -0.11907374 0.022950632 0.0958415
0.06755244 0.1276474 -0.09046047 -0.12480155 -0.0077928426 0.10895476 0.09433158 0.11218652
0.0392632 0.04469623 -0.12893812 0.035898924 0.090008676 0.11651765 0.015446734 0.0543568
